brain.pt (torch, 39707 bytes, 76 tensors)

conv_layers.0.conv.weight f4 [4, 2, 1]
000000 25 70 e2 bb 4c cd b8 3e 9b 88 18 3f 23 13 0b bf
       -0.0069103413 0.3609413 0.59583443 -0.54326075
000010 96 2a 9c 3d fc d4 00 3f 5f 6b 5c 3e 96 68 28 3f
       0.0762531 0.5032499 0.21525334 0.65784585

conv_layers.0.conv.bias f4 [4]
000000 63 8e 01 bf f4 50 a8 be 19 f3 15 3d 0d 8c 70 be
       -0.5060789 -0.32874262 0.03660879 -0.23490925

conv_layers.0.res1.conv1.weight f4 [4, 4, 3]
000000 a8 bc 1a be b1 1f 65 3e ae 35 87 3f 0e 79 77 3e
       -0.15111029 0.2237537 1.0563257 0.24167272
000010 df 5f 46 be d5 3e 99 be fe 06 66 3e 56 0e fa 3d
       -0.1937251 -0.2993075 0.22463605 0.122097656
000020 a3 30 fb bd 55 d5 6a bf 5b 9b f5 be c7 94 b2 bd
       -0.12265136 -0.9173177 -0.4797009 -0.08719783
000030 ec 25 8d 3f a1 68 08 3e 6c 71 02 bf 66 d6 4c 3f
       1.1027198 0.13321163 -0.5095432 0.80014646
000040 20 24 bf 3e 95 02 93 be 35 41 0c 3f c2 d5 58 3f
       0.3733225 -0.28712907 0.54787 0.8470117
000050 3d da 1d bf 4f 38 85 3e ab f1 fe be f2 cb 31 be
       -0.6166113 0.26019523 -0.49793753 -0.17362955
000060 07 65 42 be a9 3b 92 bf 03 04 4a 3f c6 5a 35 be
       -0.18983851 -1.1424457 0.7891237 -0.17710409
000070 3c c5 18 3e 3e f6 8f 3e 71 ac ea 3e b4 0a 53 3e
       0.14918989 0.28117555 0.45834687 0.20609552
000080 15 50 88 3e fe 69 d8 be cc 47 89 3e 4d 3b 81 bc
       0.26623598 -0.42268366 0.2681259 -0.015775347
000090 42 9f 6c be 7f 37 33 3e 68 8c 6b be 9a 7f 99 3d
       -0.23107627 0.17501639 -0.2300278 0.07495041
0000a0 d5 e5 93 be a1 7a 89 be 10 8b c4 3d 2f 83 16 3f
       -0.28886285 -0.2685137 0.095968366 0.5879392
0000b0 eb f4 aa bf e8 20 f8 3e af 82 fe be a0 d8 88 3e
       -1.3355993 0.48462605 -0.4970908 0.26727772

conv_layers.0.res1.conv1.bias f4 [4]
000000 ca f1 70 3e ad b7 65 3d f6 fa a6 3e 0d 37 8a 3e
       0.23529735 0.05608337 0.32613343 0.26995125

conv_layers.0.res1.conv2.weight f4 [4, 4, 3]
000000 bd 6c 2f 3e df 9e ce 3e df c5 47 3e 6f aa 9f 3f
       0.17131324 0.40355584 0.19509076 1.2473887
000010 2c fb 86 3f 74 95 f7 3d eb 88 bb be 10 57 2a bf
       1.0545402 0.12089053 -0.36627898 -0.66539097
000020 cd 86 c0 bc 2b 85 11 3f 92 3b 4a be b9 48 2c 3e
       -0.023501778 0.56843823 -0.19749287 0.16824616
000030 14 d5 2e 3e 47 d3 ac be 6c 5b 75 3f 56 62 17 3d
       0.1707347 -0.33754942 0.95842624 0.036959015
000040 d8 9b b6 3e 6b 6d 3f 3f d1 39 17 bf 95 2e 99 3e
       0.35665774 0.74776334 -0.59072596 0.29918352
000050 06 a9 a7 3d e9 8a 90 3d 0a 73 13 bf 4a 98 b5 3c
       0.081865355 0.07057745 -0.5759741 0.022167344
000060 ec 86 15 3f 7a 4c 04 3d 1f 49 b5 be e3 ae 03 be
       0.58409 0.032299496 -0.3540735 -0.12859683
000070 47 fc fd 3e ec 1a 8a be c2 4d 33 be 83 72 c8 be
       0.49606535 -0.26973665 -0.17510131 -0.39149866
000080 d9 fe 92 be e9 ef b7 bd 81 b0 30 3f 88 c3 20 3e
       -0.28710058 -0.08981306 0.69019324 0.15699589
000090 b2 3e 22 3e d8 45 46 3e cb 78 7f 3e 5b 35 7d 3e
       0.15844229 0.19362581 0.24948423 0.24727385
0000a0 47 a4 b8 3d 01 27 12 3f 14 58 b0 bd 84 ef 07 bf
       0.090157084 0.57090765 -0.086105496 -0.53099847
0000b0 42 9e 3a 3e bc 7b 3a bf 04 6c ef 3e f3 30 34 bf
       0.18224433 -0.72845054 0.46762097 -0.7038719

conv_layers.0.res1.conv2.bias f4 [4]
000000 47 ee 74 bd 1a f2 15 3d a2 a3 9d be e6 7c e8 bd
       -0.05979755 0.03660784 -0.30788904 -0.113519475

conv_layers.0.res2.conv1.weight f4 [4, 4, 3]
000000 53 6c f8 3e 3a 1d 8e 3e b6 9f da 3e 62 24 0b 3f
       0.48520145 0.27756673 0.42699975 0.5435239
000010 ba a8 08 bf 4b 56 27 bf 09 17 0d 3f 98 4c 42 be
       -0.53382456 -0.6536605 0.55113274 -0.1897453
000020 bf e8 fa bd fe c4 f2 3e f7 4b a1 3d 23 bc 48 3f
       -0.12251424 0.47415918 0.07875817 0.78412074
000030 a5 86 60 3e 07 71 16 bf fe 64 d3 bd 73 a7 a0 bd
       0.21926363 -0.58766216 -0.10321997 -0.078444384
000040 47 27 52 bf cd b9 ae be 15 8c d9 be 00 86 b7 bf
       -0.8209118 -0.3412613 -0.42489687 -1.4337769
000050 aa 4f 92 be 6e 75 f6 be fa ec 09 be 68 ac 81 3e
       -0.28576404 -0.48136467 -0.13469306 0.25326848
000060 37 ad d5 bd c4 7a 0d bf b0 3a 4c 3f e1 d3 89 3e
       -0.10433429 -0.5526545 0.7977705 0.26919463
000070 2e b3 81 3e 5d 79 b8 be bc 29 51 3e 39 da 2c be
       0.25332016 -0.36030093 0.20426077 -0.1688012
000080 20 4e 8a bf 28 99 44 3e 1d de 33 be d0 78 5e be
       -1.0805092 0.1919905 -0.17565198 -0.21725774
000090 78 1e 06 3e 11 58 20 bd 5b ba 8d bd f0 af 13 3e
       0.1309756 -0.039146487 -0.0692031 0.14422584
0000a0 6f 2f c0 3e fe b0 a8 bd 88 19 89 be 3e b0 48 bf
       0.3753619 -0.082368836 -0.2677729 -0.78393924
0000b0 b3 ad a2 3d c9 e9 f3 be ab 73 48 3f eb ca d9 bd
       0.07943287 -0.476393 0.78301495 -0.10634407

conv_layers.0.res2.conv1.bias f4 [4]
000000 ee 91 06 3e de db 11 be 28 d7 8f 3e 5e 2c 5b 3e
       0.13141605 -0.14244029 0.2809384 0.21403643

conv_layers.0.res2.conv2.weight f4 [4, 4, 3]
000000 34 c6 c1 3e 4d 3f de be f7 4c 2f bc d3 c2 44 bc
       0.3784653 -0.4340767 -0.010699502 -0.01200934
000010 36 f7 3a be 84 b8 51 be 42 0d ae 3e 08 f1 f6 3e
       -0.18258366 -0.20480543 0.3399449 0.48230767
000020 f6 71 ea bd 89 1f 6e 3f 25 04 9c bd f7 2a 17 3f
       -0.114475176 0.9301687 -0.07617978 0.59049934
000030 b1 ba c1 be c3 bc 8f 3d 98 66 89 bd fb b4 12 bf
       -0.37837747 0.07018425 -0.06709021 -0.57307404
000040 ea 82 f2 3e 27 ab 66 3e 0b 94 f6 3d 93 66 17 be
       0.47365505 0.22526227 0.12039956 -0.14785223
000050 c2 a3 2e 3e c6 e2 a4 3e d6 71 c0 3e b8 8a 47 3f
       0.17054656 0.32204264 0.3758685 0.77946043
000060 45 97 d4 3e 22 56 39 3f 1b 9f ba be 94 2e db be
       0.4152166 0.72397053 -0.36449513 -0.42808974
000070 8d f0 a4 be 71 05 30 bf 65 3f a1 3e 3a 83 c9 bd
       -0.32214776 -0.687583 0.3149368 -0.098394826
000080 85 b4 33 be 4b 4e f2 3c 01 52 38 bf e0 1d 47 3e
       -0.17549331 0.029578349 -0.7200013 0.1944499
000090 f4 87 77 3e c9 45 03 bf 96 e8 20 bf dc 44 a3 be
       0.24172956 -0.5127836 -0.628549 -0.31888473
0000a0 52 e5 cc 3e 36 56 d3 be 7c 06 da be 2d 88 bf bd
       0.40018708 -0.4127671 -0.42583072 -0.09352145
0000b0 7c 53 09 bd eb 10 4d bf f2 0d 05 bf 0d de 39 be
       -0.033526883 -0.8010394 -0.51974404 -0.18151112

conv_layers.0.res2.conv2.bias f4 [4]
000000 02 5a 80 be 6f 36 63 3e bd 35 0a be ae af 2f 3e
       -0.2506867 0.22188734 -0.13497062 0.1715686

conv_layers.1.conv.weight f4 [4, 4, 1]
000000 85 e9 8a bd 2f 80 6b bd e5 fe 13 be 0e 22 f2 be
       -0.067828216 -0.057495292 -0.14452703 -0.47291607
000010 b5 57 27 be 67 45 b9 bd a9 5f 0c 3f 8f af a8 3e
       -0.16342051 -0.090464406 0.54833466 0.3294644
000020 74 ee 95 3d 2d 61 d2 be b1 6f df 3e 8d 67 9c 3e
       0.07320872 -0.41089764 0.436399 0.30547753
000030 78 ea 8c 3e 8d de 88 3e d2 c6 38 be 97 4a aa bc
       0.27522635 0.26732293 -0.18044594 -0.02078752

conv_layers.1.conv.bias f4 [4]
000000 b1 a6 56 3e 6b be 35 be de ba 70 3e 08 d3 d7 be
       0.20962025 -0.1774842 0.23508784 -0.42153192

conv_layers.1.res1.conv1.weight f4 [4, 4, 5]
000000 b7 97 09 3e 1f 11 e1 3e 16 a2 1d bd 1f 96 7d be
       0.13436781 0.43958375 -0.038484655 -0.24764298
000010 cb 75 0b bf 42 0a ae 3e 42 15 27 3f f7 40 6b 3f
       -0.5447661 0.339922 0.6526681 0.91896003
000020 a6 ad d3 be be 50 b3 bd c3 2a 54 be 98 28 0d 3e
       -0.4134342 -0.08755635 -0.20719437 0.13785017
000030 a8 6d 11 be 92 3f 18 3e 45 dd 4f be d3 33 7b be
       -0.14201987 0.14868 -0.20299251 -0.24531488
000040 c0 07 3e 3d e9 e5 96 be bc 10 b2 3e d4 5a 31 3f
       0.04639411 -0.29472283 0.34778392 0.6927922
000050 bf 3b 9f bc 61 70 17 3e fe cb b8 3e 81 8f 71 be
       -0.019437669 0.14788963 0.36093134 -0.23589899
000060 70 ea 48 be 70 28 4c bd 02 64 2d 3e 03 dd 9d bd
       -0.19620681 -0.04984325 0.16932681 -0.0770817
000070 2b 9a 5b 3f c4 e8 e2 be d1 4a 21 3c b7 80 5c 3e
       0.85782117 -0.4431821 0.009844498 0.21533476
000080 75 62 1b be 9b f9 b0 bd b7 a0 a7 be 36 d4 af be
       -0.15174277 -0.086413585 -0.32739803 -0.34341592
000090 e3 43 81 3d 90 53 fc be 34 95 e5 3d 58 5f 92 3e
       0.063117765 -0.49282503 0.11210099 0.28588367
0000a0 d3 ce 79 3d 8b 40 09 bd 3f 50 f3 3d 32 e0 88 be
       0.06098826 -0.03350882 0.1188054 -0.26733547
0000b0 4b ac 83 3d 0b ed 3a be 43 bd b0 3b d2 91 16 3e
       0.06429347 -0.18254487 0.0053936555 0.14704064
0000c0 3e 2e 80 bc 4a 2a 32 be db 6b 2e bd 0d 56 ad 3e
       -0.01564705 -0.17398944 -0.042583328 0.33854714
0000d0 f9 e0 22 3e 0a 2d f8 3d f2 ce 17 3f 3f 37 a5 3d
       0.15906133 0.121179655 0.5930015 0.08067178
0000e0 b3 9b d0 bd d3 73 98 3d f9 16 0c bf fb 4e c1 be
       -0.10185947 0.07443967 -0.54722553 -0.3775557
0000f0 fa 63 f4 3e a7 67 11 3f a5 2f 40 3e 39 5c e5 be
       0.47732526 0.56798786 0.18768175 -0.44796923
000100 22 0d 9c 3e cd 1b 0f 3f 3f 3f 5e be 20 f5 6e be
       0.3047877 0.55901796 -0.21703814 -0.23335695
000110 c4 9b 0e bd e0 45 42 bd 28 19 2b be fb 01 86 3e
       -0.03481652 -0.04742992 -0.16708815 0.26173386
000120 85 5a e2 3e 7b 3d 44 3c fb c6 0a bf 71 b0 3e be
       0.44209686 0.011977549 -0.5420987 -0.18621995
000130 ab c3 48 3d a6 2c b1 bd 72 33 ff bd 49 27 47 3e
       0.04901473 -0.08651094 -0.12460984 0.1944858

conv_layers.1.res1.conv1.bias f4 [4]
000000 da f8 1b 3e e4 cb 55 be 01 be d3 bd 5f 55 7d be
       0.15231648 -0.2087856 -0.10338975 -0.24739598

conv_layers.1.res1.conv2.weight f4 [4, 4, 5]
000000 f8 13 a2 bd ee 2c 9d be da dc 57 be 29 22 ab be
       -0.07913965 -0.3069834 -0.21080342 -0.334245
000010 0c fe 03 be 30 5e d6 be db 1b 30 bf 93 8c 6a be
       -0.1288988 -0.41868734 -0.68792504 -0.22905187
000020 1e df e6 bd 11 7e 1b be 37 08 af bc 09 7e 84 3c
       -0.11273025 -0.1518481 -0.021366222 0.01617338
000030 ea ab e4 3d bd da b5 3e 08 86 81 bd f4 c6 28 be
       0.111656025 0.35518447 -0.063243926 -0.16482145
000040 5a df 87 3e 8b c1 b7 3e dc a4 f4 3e 4f c2 91 be
       0.2653759 0.3588985 0.47782028 -0.28468558
000050 89 a0 9b 3e 27 00 20 3e b8 33 7f be 6a 35 77 bc
       0.30395916 0.15625058 -0.24922073 -0.0150884185
000060 c3 d0 62 3f 71 40 69 3e af 21 b1 bd cf b7 e9 3e
       0.88599795 0.22778489 -0.08649003 0.45648047
000070 e7 01 df be 6d 39 66 3e fb 99 a4 3d b2 35 12 bd
       -0.4355614 0.22482844 0.08037182 -0.03569574
000080 94 5f bd 3e 8a 4e 91 be db 10 31 3d b2 77 41 bf
       0.36986983 -0.28380233 0.043228965 -0.75573266
000090 67 59 1d be 1e 4c 5e 3e e1 bb c8 3e e3 60 bd be
       -0.15366136 0.21708724 0.3920584 -0.3698798
0000a0 73 d5 c8 3e bb 3e 70 3e e3 ba b6 be ed f4 8e 3e
       0.3922535 0.2346143 -0.35689458 0.2792124
0000b0 66 22 11 3f a5 bc 3e 3e 64 8a a5 3e 8f 23 87 3e
       0.5669311 0.1862665 0.32332146 0.26394317
0000c0 e2 81 ac 3e ce ce 87 be 95 7f ea bd 69 93 ff 3b
       0.33692843 -0.26524967 -0.114501156 0.007799555
0000d0 03 50 d3 bd 9f 80 05 bf f8 6e c0 be 35 c6 a1 3e
       -0.103179954 -0.52149385 -0.37584662 0.31596532
0000e0 01 8e cb bc a8 de b3 3e 2f c8 83 bd 5b 29 81 be
       -0.024847986 0.3513081 -0.06434666 -0.25226864
0000f0 88 92 2d 3e 12 e8 85 be c7 2c 08 be 7d f4 00 3e
       0.16950428 -0.26153618 -0.13298331 0.12593265
000100 5d 50 70 be a5 81 93 3e 0c e5 e2 3e 3c ae 03 3d
       -0.23468156 0.28809848 0.44315374 0.032148585
000110 a2 38 04 3f 9e bc 0a be bf 6e 06 3e fa 4f 92 bc
       0.51648915 -0.13548514 0.13128184 -0.017860401
000120 64 6d 4a be cc 98 81 3e 79 89 e3 3e 3f 44 7c be
       -0.19768292 0.25311887 0.4444082 -0.24635409
000130 68 fd c7 3e b6 c4 2d 3f 0f 71 b6 3e e8 bb 08 3f
       0.3906052 0.6787828 0.35633132 0.5341172

conv_layers.1.res1.conv2.bias f4 [4]
000000 5f c6 9f 3d ee 8b 1f 3e e5 74 31 3e 40 88 b7 bd
       0.07801508 0.15580723 0.17329748 -0.089615345

conv_layers.1.res2.conv1.weight f4 [4, 4, 5]
000000 2a 4f ea 3e f2 4c d1 3c 08 51 9a 3e 3e 6c 71 3e
       0.45763522 0.025549386 0.30139947 0.23576447
000010 cd 56 ef 3e d8 6c 9c bc 1a f0 b2 be 38 aa aa be
       0.4674591 -0.01909487 -0.34948808 -0.33332992
000020 03 51 b9 3e 01 13 14 be 2c 5d 22 be 3e 83 03 3e
       0.3619462 -0.14460374 -0.15855855 0.12843034
000030 0d fa 8b 3e 25 73 a7 3e ca 06 75 be 2f 64 ac be
       0.2733921 0.32705036 -0.23928371 -0.33670184
000040 75 d8 be be 11 f7 56 bd ea d7 d5 bd 12 d6 0d be
       -0.3727452 -0.052481715 -0.10441573 -0.13851193
000050 b6 94 03 3e 8e 7d ec bd 87 85 54 be 31 8c 5c be
       0.12849697 -0.11547385 -0.20754062 -0.21537854
000060 d9 22 70 3e 3c ad 8d be fd 12 a0 be 8b 01 7f 3e
       0.23450793 -0.2767123 -0.31264487 0.24902932
000070 46 c7 fa 3b 37 5d c5 3e 2c 28 96 3d 20 0c 7b 3e
       0.00765315 0.3854768 0.07331881 0.24516344
000080 6d ff 08 3e 61 ab f7 3e 2d 03 59 3e cb 20 be 3e
       0.13378687 0.4837294 0.21192618 0.37134394
000090 04 2f 16 3e dc 87 8f 3e 19 95 12 3f cb 2d 3b 3f
       0.14666373 0.2803334 0.57258755 0.7311675
0000a0 f2 be 0e 3e 72 a3 bf 3e b3 2b 08 be b3 1b 8e be
       0.13940027 0.37429386 -0.1329792 -0.27755508
0000b0 03 c9 82 3d 5a d1 c0 3d f6 cf ad bd 59 52 a9 3e
       0.06385996 0.09414931 -0.08486931 0.3307064
0000c0 c7 0f 9d 3e d2 3e 68 3e e8 b6 38 3e 54 f2 48 3f
       0.306761 0.22680214 0.18038523 0.78494763
0000d0 f1 10 52 3d 7a 65 3d ba 3f c0 a9 3e ba 46 c7 3e
       0.051285688 -0.0007224899 0.33154485 0.38921148
0000e0 80 46 be 3e ac ed 15 3e 68 92 8c 3e dc 85 66 3e
       0.37163162 0.14641446 0.2745545 0.22512001
0000f0 17 29 bf 3d 09 20 18 3e 2a b9 c5 3d 8e 1e 91 3e
       0.09334009 0.1485597 0.09654458 0.28343624
000100 06 1d 26 be 14 ad 0b be 2e 12 fb 3d a4 9a c6 3c
       -0.16222009 -0.13640243 0.12259327 0.02424366
000110 f1 3e 19 3f 4e ef 1c be ec d3 c1 bd f8 91 15 3f
       0.59861666 -0.15325662 -0.09464249 0.58425856
000120 2b d5 90 be ac ff bb be 48 ea 8e bd de 04 b9 3d
       -0.28287634 -0.367185 -0.06978279 0.090341315
000130 53 25 76 bd c9 17 87 bd b5 81 2b 3d 0c d9 74 3e
       -0.06009419 -0.065963335 0.041871745 0.23910922

conv_layers.1.res2.conv1.bias f4 [4]
000000 90 23 8e 3c 2b 60 29 be b1 99 0e 3e 05 72 93 3c
       0.017350942 -0.16540591 0.13925816 0.017998705

conv_layers.1.res2.conv2.weight f4 [4, 4, 5]
000000 f6 be b1 be 1f eb 93 be 73 e2 aa be 9d af 19 bd
       -0.34716004 -0.2889032 -0.33375892 -0.037520994
000010 07 d7 16 be 0f ad f9 3d 0b 01 8d be 0a 96 b1 bd
       -0.14730464 0.121912114 -0.27539858 -0.08671196
000020 1f d7 02 3e c6 62 a6 3d 59 fa f2 be 9e 4c 3b bf
       0.12777375 0.08124308 -0.47456625 -0.73163784
000030 33 fc 2a be 8f fe 13 3f 92 58 49 bf 7f b0 63 3e
       -0.16697769 0.578103 -0.7865077 0.22235297
000040 49 05 62 be 37 8a c4 be 5c 30 06 bd a3 5b 21 bf
       -0.22072329 -0.383867 -0.032760963 -0.6303045
000050 0c 86 50 be dd ee 94 3d f8 c7 56 bd a8 bb 2c bf
       -0.20363635 0.07272122 -0.0524368 -0.6747384
000060 5b e9 d5 be 7b 90 55 3e 4b 36 3c 3e 1f 8f 0f bf
       -0.417796 0.20855896 0.18380086 -0.5607776
000070 21 ef ef 3d af 8d 38 3f 2e 38 87 3e 83 8c c2 bd
       0.11715532 0.7209119 0.2641005 -0.09499457
000080 34 2e 67 3f 01 7d 3b be 5b f3 50 be 7b e8 6d 3e
       0.90304875 -0.18309404 -0.20405333 0.23233216
000090 0f 25 a8 be 56 b2 9d be 60 e8 1b be fd 42 fd 3d
       -0.32840773 -0.30800122 -0.15225363 0.123662926
0000a0 0c ca d6 bd c6 c9 62 be 16 b3 bc be 99 96 17 3e
       -0.10487756 -0.22147283 -0.36855382 0.14803542
0000b0 0b 76 b3 bc b6 7e 1e be d6 20 53 bb 16 28 04 bd
       -0.021906873 -0.15478024 -0.0032215617 -0.03226479
0000c0 1c 89 44 bf ad ea 11 be 9b 18 a6 be 1e 6f 17 be
       -0.7677171 -0.14249678 -0.32440647 -0.14788482
0000d0 83 ad bb be 60 7c a5 be 1e dd 4c bf fe 7c a2 3c
       -0.36655816 -0.32321453 -0.800249 0.019834992
0000e0 46 34 ae be 45 c0 9d 3e bd 3c 0a 3f ff 64 bb 3e
       -0.34024256 0.30810753 0.5399893 0.3660049
0000f0 8b 10 44 3e e7 83 8d 3b 9d 68 85 be 5b fd e5 be
       0.19146936 0.0043187025 -0.26056376 -0.44919857
000100 39 ea bb bc 0e 51 ab bd a9 2e cf 3d ed e8 74 be
       -0.022938835 -0.08365069 0.101163216 -0.23916979
000110 12 bd d2 bb 96 50 38 be 2b 3d 4f 3e 64 41 b5 be
       -0.0064312303 -0.17999491 0.20238177 -0.35401452
000120 38 60 c3 bd fb 26 16 bf e9 49 11 bf 44 00 7f be
       -0.09539837 -0.5865323 -0.567534 -0.24902445
000130 ab 33 1a bc 51 ef bd 3e 21 fb f9 3a 40 20 2b be
       -0.009411733 0.37096646 0.0019072035 -0.16711521

conv_layers.1.res2.conv2.bias f4 [4]
000000 4f 12 8c bd 88 8c 0a 3e d5 d1 3d be 05 f9 76 3e
       -0.068394296 0.13530171 -0.18537076 0.24118431

conv_layers.2.conv.weight f4 [4, 4, 1]
000000 b3 c1 99 3e 76 a5 de 3e 83 6b 93 be 1c de 0b 3f
       0.30030593 0.43485612 -0.28792962 0.54635787
000010 fd 07 81 be 73 6c 3b 3e 23 60 ee bd 6e 06 2e 3e
       -0.25201407 0.18303089 -0.116394304 0.1699464
000020 b6 8d 68 3e c2 ca 67 be e6 c7 98 be 6c 15 0c 3c
       0.22710308 -0.2263594 -0.2984001 0.008550029
000030 40 5b a7 3e a1 cb fb 3d 14 2f df be 58 09 14 bf
       0.32686806 0.122946985 -0.43590605 -0.5782676

conv_layers.2.conv.bias f4 [4]
000000 0c 14 6f be cd f6 2d 3c fc 1a 0e be 09 03 c5 be
       -0.23347491 0.010617924 -0.13877481 -0.38478878

conv_layers.2.res1.conv1.weight f4 [4, 4, 3]
000000 03 b9 5a 3f cc 2d a8 3e 4f a5 57 3e db 16 2d bf
       0.85438555 0.3284744 0.21059154 -0.67613
000010 13 ac ac 3d a8 22 ee be 44 62 fe be e6 6a af be
       0.08431258 -0.46510816 -0.49684346 -0.34261245
000020 3f d4 29 3f b8 90 88 be e0 cf 7e 3e f5 70 41 3e
       0.66339487 -0.26672912 0.24883986 0.18890746
000030 10 a3 a7 bd 7e 7b 51 bf 7b 88 e1 be 0a 48 a3 3b
       -0.081853986 -0.8182906 -0.4404944 0.004982953
000040 b4 90 8e be 22 0b c7 be d5 46 58 bf c5 ac 0c 3f
       -0.27844775 -0.3887568 -0.8448308 0.54951125
000050 90 90 d6 3b ea 4b aa 3e e8 f7 e2 3e 19 36 e0 3e
       0.006547995 0.33261043 0.44329762 0.43791273
000060 1f 21 c1 be a0 03 0b bf ce ab 88 3e 77 9c 29 3e
       -0.37720582 -0.54302406 0.26693577 0.16563593
000070 f1 77 7b 3d fa f4 60 3d 03 06 29 be 98 a0 09 3f
       0.061393682 0.054921128 -0.165062 0.5376067
000080 49 cc 66 be 86 cd a5 be 1f c6 ea 3e 07 dc 01 3e
       -0.22538866 -0.32383364 0.4585428 0.1268159
000090 e4 fa 1a 3f ce f8 8f 3e fe a6 0b 3f 1a 5d 41 3f
       0.6053908 0.2811951 0.54551685 0.75532687
0000a0 0c a1 ae 3e 8a fb 0b 3d dd f4 62 bf 30 02 29 3f
       0.34107244 0.034175433 -0.8865488 0.6601896
0000b0 0b b4 26 bd 35 7a 6d 3f cb 2d 90 be 42 4f 92 3d
       -0.040699046 0.927646 -0.28159937 0.071440235

conv_layers.2.res1.conv1.bias f4 [4]
000000 39 4c 82 3d a6 60 62 3e db cd 2f 3d 45 24 06 3e
       0.063621946 0.22107181 0.04292093 0.13099773

conv_layers.2.res1.conv2.weight f4 [4, 4, 3]
000000 60 e6 48 3f d0 91 17 be dd 76 cc be c3 df 1f 3e
       0.78476524 -0.14801717 -0.39934435 0.15612702
000010 6d f5 b8 be 69 40 3c 3d 5f 54 99 3e b7 95 c2 3d
       -0.36124745 0.045959864 0.29947183 0.09501212
000020 f8 d3 3e 3f f3 bc 3f bd 31 48 9c 3d 64 9a 95 3c
       0.7454219 -0.046811055 0.07630957 0.018262096
000030 8d 0a a8 3e c9 27 ad 3e e8 71 91 bd ca 43 22 be
       0.3282055 0.33819416 -0.07101804 -0.15846172
000040 af d5 91 bc 65 03 98 3d 25 c8 6b 3e 9b c8 73 bd
       -0.017802088 0.074225225 0.23025568 -0.059517484
000050 c4 31 05 be 9d 8e b5 3d 7c c4 38 3e 90 b8 97 bf
       -0.13007265 0.08865092 0.18043703 -1.1853199
000060 49 af da 3e 9b 21 4f 3e 3a ee 2e 3d 33 45 67 3e
       0.42711857 0.20227663 0.04270766 0.22584991
000070 76 5f d3 bd 8b 4f 4b be fe 6c b3 3e 45 b3 a7 bf
       -0.10320942 -0.19854562 0.35044092 -1.3101584
000080 a0 14 82 be 11 a5 61 3e 50 84 04 3f fe 91 e3 3e
       -0.2540636 0.22035624 0.5176439 0.4444732
000090 3c ca 01 3f 2a b5 5e 3e de b5 ac be 63 46 d4 3d
       0.5069921 0.21748796 -0.33732504 0.10364988
0000a0 e5 06 6d bf bf 7f 5e 3e d2 ee 81 bd 10 c8 87 be
       -0.92588645 0.21728419 -0.063443795 -0.26519823
0000b0 d4 56 a8 be c2 27 77 bf 31 9e 4d 3f dc f4 a9 bc
       -0.32878745 -0.9654504 0.80319506 -0.02074664

conv_layers.2.res1.conv2.bias f4 [4]
000000 b7 ef 16 be 6d 0d 8f 3c ae 8b 28 be 6c ee 0d be
       -0.14739881 0.017462457 -0.16459534 -0.13860482

conv_layers.2.res2.conv1.weight f4 [4, 4, 3]
000000 3d cd 13 3f cb bc 18 bf c2 98 99 be 3f 9a 46 be
       0.57735044 -0.59663075 -0.29999357 -0.19394778
000010 cf da 14 bf 60 20 ed 3e 1a b0 90 3e de 44 3a bf
       -0.58146375 0.46313763 0.28259355 -0.72761333
000020 fe 92 ab be 6c 24 3c 3e 5d 78 c3 3e 68 db f7 bc
       -0.33510584 0.18373269 0.38177767 -0.030255988
000030 0a 26 d5 3d d5 b6 a1 be 10 99 c4 be 3d cf 21 3e
       0.10407646 -0.31584802 -0.38398027 0.15801711
000040 0a 15 c0 bd f7 bc 39 3f fe 34 cd 3e 95 90 05 bc
       -0.09379013 0.7255396 0.40079492 -0.008152147
000050 f9 8d 5f be 9d 49 a9 be 04 ce 0b be 37 ff 96 3e
       -0.21831502 -0.33063975 -0.13652807 0.29491588
000060 8a f3 fd 3e 6a 8e 95 3e 3c 86 5c be e0 be bb bd
       0.49599868 0.29210216 -0.21535581 -0.09167266
000070 2c 8b e0 bd f7 e8 e1 3c 25 39 db be 58 7c 6a bd
       -0.10964045 0.027576907 -0.42817035 -0.05724749
000080 6a 8c d1 3e 09 7a 1b bb 83 33 c5 3e 74 03 e4 3e
       0.4092744 -0.0023723862 0.38515863 0.44533885
000090 e3 dd 7a 3e 48 ed 16 bf b2 77 02 3e 47 5d 29 3e
       0.24498706 -0.5895581 0.12740973 0.16539489
0000a0 32 e1 6d bf 64 d9 8e 3d 43 76 23 bf 70 7d 8d 3d
       -0.92921746 0.06975058 -0.6385233 0.06908691
0000b0 b3 ea db 3e f9 84 c5 3e a4 64 68 3e 2c d5 46 3d
       0.429525 0.38578013 0.22694641 0.04854314

conv_layers.2.res2.conv1.bias f4 [4]
000000 c7 64 46 3e b9 58 1f 3e 75 0a d2 3c cf 74 d3 3d
       0.19374381 0.15561189 0.025639752 0.10325014

conv_layers.2.res2.conv2.weight f4 [4, 4, 3]
000000 86 14 93 be 47 ed e3 3d cf cc 65 bd e2 6a 98 be
       -0.28726596 0.111292414 -0.056103524 -0.29769045
000010 49 ea 3c be 34 ca bf be 42 ca 54 3e 8a d2 1e bf
       -0.18448748 -0.37458956 0.2078028 -0.6204001
000020 78 fc d1 bc 6b 80 69 bf a4 6b 88 3e fa 6d 15 3f
       -0.025633082 -0.91211575 0.26644623 0.58370936
000030 83 c4 6e 3f c2 bd f1 3e e1 92 9d be 4b f6 5c be
       0.93268603 0.47215086 -0.30776122 -0.21578328
000040 fd 23 0f 3f e9 c7 8e be e5 d1 2a 3e 59 07 ae 3c
       0.5591429 -0.27886894 0.16681631 0.021243738
000050 c9 f5 3b be 3b 15 cb bc b5 fd 62 3e ff d6 65 bf
       -0.18355478 -0.024790397 0.22167094 -0.89781183
000060 26 76 a6 3d a5 ac 3d bf a3 92 97 3c e0 df 1b 3f
       0.08128004 -0.7409156 0.018502539 0.6088848
000070 a7 37 2f 3f 2c ab 50 bf b2 cb 83 3d df 31 ae be
       0.68444294 -0.8151119 0.06435336 -0.34022424
000080 a9 ff 15 3f 1f c5 5d 3e 6b 5d af be 6e dd 15 bd
       0.5859323 0.21657227 -0.3425096 -0.036588125
000090 53 4f 29 3e 94 18 02 bf b5 f2 59 be 11 b5 3e be
       0.16534166 -0.50818753 -0.21283992 -0.18623759
0000a0 10 14 31 bf bb 92 35 be 96 f9 21 bf 2a 33 86 bd
       -0.6917124 -0.17731754 -0.6327146 -0.065527275
0000b0 1d d7 05 bf 9c 12 86 bd 54 3b 73 bf 2a 55 5d be
       -0.5228136 -0.06546518 -0.950124 -0.21614519

conv_layers.2.res2.conv2.bias f4 [4]
000000 96 7c 2a 3e c4 17 71 3e 46 73 eb bd 04 f4 03 be
       0.16649088 0.23544222 -0.11496596 -0.12886053

conv_layers.3.conv.weight f4 [4, 4, 1]
000000 ad dc 12 be 68 fe 81 be 8a bf b8 3e 86 f1 fa be
       -0.14341994 -0.2538941 0.36083633 -0.49012393
000010 79 68 c9 3e 52 ce 91 3e 3c e8 7b be f8 de 58 be
       0.3933752 0.28477722 -0.24600309 -0.21178806
000020 3f 90 f6 3d 71 19 86 be bf d0 e6 bd 05 4b e7 bd
       0.120392315 -0.26191285 -0.11270284 -0.11293606
000030 33 db 4b 3e d0 6e c1 be 9a c8 0c 3f 46 51 0f 3d
       0.19907837 -0.37779856 0.54993594 0.034989618

conv_layers.3.conv.bias f4 [4]
000000 7e f2 8b be 94 6e a8 be e9 68 22 3e 8f da 38 be
       -0.27333444 -0.32896864 0.15860333 -0.18052123

conv_layers.3.res1.conv1.weight f4 [4, 4, 5]
000000 95 ee 33 bd 47 22 11 be 3c 8c 1c 3f 85 eb f9 3e
       -0.0439287 -0.14173232 0.6115148 0.488125
000010 81 e3 8c 3e a2 b5 c5 3d aa 12 02 3f 0a 7a 8e bd
       0.27517322 0.09653784 0.5080973 -0.06956871
000020 ad 7b 0e be cb b0 c3 bc 4d aa 8b 3b 5a b1 37 bf
       -0.13914366 -0.023888012 0.004262245 -0.7175499
000030 8e 27 c2 be b0 14 10 be ac 3d 32 be 67 73 9b be
       -0.37920803 -0.14070392 -0.17406338 -0.30361483
000040 a0 e1 99 be df 47 a3 3e 5d 72 78 3e 96 c6 e6 be
       -0.3005495 0.3189077 0.24262376 -0.45073384
000050 83 c3 13 be 8f d4 b7 be 45 2b bc be 7b 67 98 3c
       -0.1443005 -0.35904357 -0.36751762 0.01860403
000060 db 55 0c 3f 30 fd ec be f6 25 04 ba 38 d7 cd bd
       0.54818505 -0.46286917 -0.0005041057 -0.10050815
000070 3d f2 a8 3b 56 cd 9b 3e 7d a3 98 3e b9 7e d0 3e
       0.00515583 0.30430096 0.29812232 0.40721682
000080 56 f3 50 be c4 a0 8a 3e 13 1e 95 be 83 ff 9b be
       -0.20405325 0.2707578 -0.29124507 -0.30468377
000090 9e dd dc be d3 3e ef bd 66 06 b3 be 6f 3b 90 be
       -0.4313783 -0.11681905 -0.3496582 -0.28170344
0000a0 8a 71 ca 3e db 8d eb be 5c 2f 52 bd 47 eb f2 bb
       0.39539748 -0.46006665 -0.051314697 -0.007413301
0000b0 22 c3 18 3c d4 d3 99 3d 97 26 72 be 48 4d 64 3e
       0.009323867 0.07511106 -0.23647533 0.22295105
0000c0 f0 d4 a9 3e 23 74 10 bf 2d 41 88 be 4f 13 07 3e
       0.3317027 -0.5642721 -0.26612225 0.1319096
0000d0 68 63 56 be 72 8b 16 be e1 ee 03 be 74 42 95 3e
       -0.20936358 -0.14701632 -0.12884094 0.29152262
0000e0 56 d8 72 3d 87 d7 0e be 9d c1 cb 3d 7d 0f 7e bf
       0.059288345 -0.13949405 0.09949038 -0.99242383
0000f0 e8 3a 1c 3e d8 9e 84 3e 72 58 e5 3d dc fd d1 3e
       0.15256846 0.25902438 0.1119851 0.41013992
000100 28 d2 af bd e7 31 41 3e 63 0e fb bd 60 f1 ff 3d
       -0.08585006 0.18866692 -0.122586034 0.124972105
000110 32 88 31 be 3f df c3 be 0a e2 cf bd 92 fb 79 bd
       -0.1733711 -0.3825626 -0.101505354 -0.06103093
000120 3d e0 81 3e 61 6e 82 3e ee de 1d bf 32 fa 82 3e
       0.25366393 0.25474837 -0.6166829 0.2558151
000130 e7 2b 20 3e 30 60 9a be 3d 19 ef be 1e a4 22 bf
       0.15641747 -0.3015151 -0.46698943 -0.6353167

conv_layers.3.res1.conv1.bias f4 [4]
000000 f7 67 39 be 29 1d 05 3e 66 f1 d7 bd 4b 68 7a 3e
       -0.18106066 0.12999405 -0.1054409 0.24453847

conv_layers.3.res1.conv2.weight f4 [4, 4, 5]
000000 aa 5c 7d bf 61 3e 2c 3e 93 dd 81 bd d1 2a 82 3e
       -0.9896952 0.1682067 -0.0634109 0.2542329
000010 a9 e8 d0 be 59 75 9d 3d a4 3c 80 bd c9 8b 8e bd
       -0.40802506 0.07688398 -0.06261566 -0.06960256
000020 23 95 33 bf e4 22 5f bd b3 be 20 be dc f7 06 3f
       -0.7014944 -0.054476634 -0.15697746 0.52721953
000030 47 45 aa be 70 4a 56 3e da 97 13 bf fb f4 0a bf
       -0.3325598 0.20926833 -0.5765358 -0.5428006
000040 fa 2d 1f 3e 06 b9 30 be d2 5d 8f be 5a 74 30 bd
       0.15544882 -0.17258081 -0.28001267 -0.04307971
000050 bf 92 53 be c4 c8 93 be eb 57 b4 be 58 e6 2f 3e
       -0.20661448 -0.2886411 -0.35223326 0.17177713
000060 04 10 77 be 4f 26 fd 3e 99 5b ca 3e 90 f7 9b 3b
       -0.24127203 0.4944329 0.39523008 0.0047597364
000070 a3 34 c8 3e a8 79 02 bf b8 5f cd bd b9 2f 1f bf
       0.3910266 -0.5096688 -0.100280225 -0.62182194
000080 b0 06 09 bf 12 c9 0b be ca 1a c8 3e 29 77 0c 3e
       -0.5352583 -0.13650921 0.39082938 0.13717331
000090 ee 98 eb bd b4 a3 6e bd c4 10 c9 be 1e c4 39 bf
       -0.115037784 -0.05826159 -0.39270604 -0.72564876
0000a0 69 03 b0 3e 6e 2a 45 be c9 c1 0c be 62 02 78 bc
       0.34377602 -0.19254467 -0.13745798 -0.015137287
0000b0 d9 a2 9e be 66 9a b3 3e 51 5f d8 be 8c a7 f8 be
       -0.30983618 0.35078734 -0.4226022 -0.48565328
0000c0 28 53 52 3e 22 f0 01 bf ea b2 4d bd e6 aa 07 bd
       0.20539534 -0.5075704 -0.050219454 -0.033121966
0000d0 0a a7 fd be 9e ab 2f bd 1d 16 90 be bc 31 ab 3e
       -0.49541503 -0.042888276 -0.2814187 0.33436382
0000e0 a0 80 a1 be 0e ae 00 bf e4 7a c3 bd e4 7c 02 3d
       -0.31543446 -0.50265586 -0.09544924 0.031857386
0000f0 6d c4 22 be 91 ef e6 bc 65 6e 95 bd af 30 a8 be
       -0.15895243 -0.028190406 -0.07296447 -0.32849643
000100 b5 6e 93 bd d0 76 d1 be 24 d6 95 3d e6 ec 81 3c
       -0.0719885 -0.4091096 0.07316235 0.015860032
000110 7a d4 b4 be e1 c1 9a bd e5 02 62 3e 75 92 59 3f
       -0.35318357 -0.07556511 0.22071417 0.849891
000120 4a 5d 69 be 63 da 60 3e 50 95 ec be bd 2b ee bd
       -0.22789493 0.21958308 -0.46207666 -0.11629436
000130 9a c5 1b 3e b4 fc 79 bd b9 03 4d be 36 49 e3 be
       0.15212098 -0.061032012 -0.20020951 -0.44391793

conv_layers.3.res1.conv2.bias f4 [4]
000000 cc 9a 62 3d ff 96 4e 3a 46 d9 0e 3e 76 ef 2c 3e
       0.055323407 0.00078807765 0.1395007 0.16888222

conv_layers.3.res2.conv1.weight f4 [4, 4, 5]
000000 6f 4c 68 be bb 49 d6 3d 0a 71 8d 3c f1 88 b7 bd
       -0.22685407 0.10463282 0.017265815 -0.089616664
000010 d0 4a be 3d 87 1d 40 3e dc 9b f4 3e e2 49 8b 3d
       0.09291613 0.18761264 0.4777516 0.068012014
000020 18 46 99 bd d8 08 12 bd d2 d3 5a bd 76 9e e4 be
       -0.074840724 -0.035652965 -0.053424664 -0.44652146
000030 6c 97 c2 3e b1 58 1c bd 06 42 15 be 60 3a 37 bf
       0.3800615 -0.03817052 -0.14575967 -0.7157345
000040 42 6b 95 be 97 cc b0 be 65 8d bd 3e 62 29 a0 3e
       -0.29183394 -0.3453109 0.37021938 0.31281573
000050 4c 16 1f 3f 13 3f 2b bf a6 a9 70 be ed 0b 93 3e
       0.621434 -0.6689312 -0.23502216 0.28720036
000060 8a 9d 49 3e 2d 5f f4 be e3 22 a9 bd 94 2a 8d bd
       0.19689003 -0.47728863 -0.08258607 -0.06892887
000070 e7 91 f1 3e 37 f3 eb bd 7b 64 c2 be 86 3f 7e 3e
       0.47181627 -0.11520999 -0.37967286 0.2482892
000080 36 f7 80 3d 64 22 07 bf ba c6 79 be 30 15 20 3e
       0.06297152 -0.5278685 -0.24392214 0.15633082
000090 5a 1a f8 bd 5d 99 1c 3e 94 a2 b2 be dd 32 3c be
       -0.12114401 0.15292878 -0.34889662 -0.18378778
0000a0 e7 9d 9f 3e 6c c4 97 bd 41 55 06 be 90 5d 08 3e
       0.31175157 -0.074105114 -0.1311846 0.13316941
0000b0 b2 e6 75 3e 0b 8d ec bd d0 af df 3d 6b c6 05 be
       0.24013785 -0.11550339 0.109222054 -0.13063972
0000c0 f3 db 91 be 5c 6a 90 bc fa 93 ce 3e 4f f0 c7 be
       -0.2848812 -0.017628841 0.40347272 -0.39050528
0000d0 3b c3 ac be 3c 61 64 bd f7 ef f4 bd b2 86 e5 3e
       -0.337427 -0.055756792 -0.11959832 0.44829327
0000e0 84 50 0f 3e db 4f b6 bd b7 ff ac 3d fb 38 e7 bd
       0.13995558 -0.0890195 0.08447211 -0.11290165
0000f0 60 e3 90 bd dd 41 a3 3c cb cb 15 3e a8 a2 dd 3e
       -0.07074618 0.019928867 0.14628522 0.4328816
000100 61 23 51 3f 5a de 29 bf a4 50 99 be 49 5b f7 bd
       0.8169461 -0.66354907 -0.29944336 -0.12077958
000110 7c 55 55 be 9f 18 a9 3c 24 23 a9 3e 93 c7 be be
       -0.20833391 0.020641623 0.33034623 -0.37261638
000120 42 97 d5 be d7 5e bf 3e 2b c2 13 be 3f d9 b8 3e
       -0.41716963 0.37377045 -0.14429538 0.36103246
000130 67 70 75 3e a4 0e 2c 3e eb c4 d3 bc 12 41 04 3e
       0.2396866 0.1680246 -0.025850734 0.12915447

conv_layers.3.res2.conv1.bias f4 [4]
000000 d7 f9 cf bd 45 ab 80 3e 25 33 c2 bb f2 f8 43 bc
       -0.10155075 0.25130668 -0.005926507 -0.011961209

conv_layers.3.res2.conv2.weight f4 [4, 4, 5]
000000 98 ad ba bd 3e 30 79 3d b3 b3 26 3e d4 59 55 bd
       -0.09115142 0.060837023 0.16279487 -0.05208762
000010 9e 13 d3 3e e3 33 2f 3d 85 5a 2e be 97 e9 fa be
       0.41225904 0.042774092 -0.17026718 -0.4900634
000020 3c e8 58 be d3 07 15 bf ff e0 bd 3e 23 23 e6 bb
       -0.2118234 -0.58215064 0.3708572 -0.0070232316
000030 d5 84 e0 3c 77 1b 1b bf 84 fa 98 be 59 c6 c0 3b
       0.02740709 -0.60588783 -0.29878628 0.00588302
000040 04 36 a1 3e 8c 01 08 3f 98 ef c2 bb 2d 84 a0 be
       0.31486523 0.5312736 -0.005948972 -0.31350842
000050 99 30 85 3e 4e ca f7 bd 0c e9 58 bf f2 dc 01 bd
       0.2601364 -0.120991334 -0.847306 -0.03170485
000060 02 9c 9f be c8 c6 f9 be ec c4 06 bf 94 8b 3b 3e
       -0.31173712 -0.4878447 -0.5264423 0.18314964
000070 44 68 11 be 7b c3 2b 3f aa 8b 4b bc 97 84 91 bd
       -0.1419993 0.67095155 -0.012423435 -0.07105368
000080 4d b1 8b 3e 46 f0 40 be ac ff e7 3e 93 f5 50 be
       0.27283707 -0.18841657 0.4531225 -0.20406179
000090 27 77 07 3f b0 38 fd bd 4f 9f ad 3e fb 67 cd bd
       0.5291619 -0.12364328 0.33910605 -0.10029598
0000a0 11 54 d5 bd b8 c4 fa be 00 97 ab be 49 8e 7f 3e
       -0.10416425 -0.4897821 -0.3351364 0.24956621
0000b0 65 be 33 be c3 08 9c 3e 7b e3 72 3e 92 93 f9 3e
       -0.17553098 0.30475435 0.2371959 0.487454
0000c0 5b 40 e3 3d 70 76 ac 3e 2e ff 0a bf 24 59 89 3e
       0.11096259 0.3368411 -0.54295623 0.2682582
0000d0 fe 2b 0d 3e 3f 9a e6 be 0c 02 b0 3e 14 b3 ac be
       0.13786313 -0.45039555 0.34376562 -0.33730376
0000e0 df 7a fc 3e 01 19 0f be 93 67 52 bb 4f 93 af bd
       0.49312493 -0.13974382 -0.0032105192 -0.08573019
0000f0 b2 70 26 bf 8f e7 48 be dd 3a 18 3e ed 26 eb 3d
       -0.6501571 -0.19619583 0.14866205 0.11482034
000100 a1 d9 d9 bd 21 00 74 3d a2 b6 f9 bd 0b 1a 5f 3e
       -0.106372125 0.059570435 -0.121930376 0.21787278
000110 3d 1b 41 3c f5 2a eb be 70 30 d1 3d 48 09 e7 3e
       0.011786279 -0.4593121 0.10214317 0.4512427
000120 db a5 b5 be 29 19 c3 3e db 7a bd bd 51 da fc 3e
       -0.354781 0.38105133 -0.092519484 0.49385312
000130 43 63 6b 3e 69 34 c3 3e e8 6a 83 3e 50 99 52 3d
       0.22987084 0.38125923 0.256675 0.05141574

conv_layers.3.res2.conv2.bias f4 [4]
000000 fd 77 43 bc f2 4e 35 3d e8 16 37 be 77 b5 79 bd
       -0.011930463 0.04426474 -0.17879832 -0.060964074

conv_layers.4.conv.weight f4 [4, 4, 1]
000000 37 35 41 3c ff c9 d1 3d 97 cd cc be 17 d1 e6 3e
       0.011792473 0.10243606 -0.40000603 0.45081398
000010 1e b7 b4 be 48 b2 b4 3e a3 4f 23 3d c9 4f f4 be
       -0.35295957 0.35292268 0.03987087 -0.4771712
000020 4b 25 84 be 8d d5 26 3e fe 2c 73 3d 93 22 76 3e
       -0.25809702 0.162924 0.05936908 0.24036627
000030 a0 94 b7 3e 6c f0 2c 3e 5c f5 3a 3e 0b 1d c6 3e
       0.3585558 0.16888589 0.1825766 0.38694033

conv_layers.4.conv.bias f4 [4]
000000 b2 96 7d bd e7 62 9e be 09 7c 9b be e7 7e 9c be
       -0.061911292 -0.30934832 -0.3036807 -0.3056557

conv_layers.4.res1.conv1.weight f4 [4, 4, 3]
000000 50 9e fa 3e 53 12 d6 be df dd e8 bd 22 be df 3e
       0.48948908 -0.41810855 -0.113704436 0.43699747
000010 1a a0 c1 3e fe c2 cc 3e cd ec be be d2 17 d3 bd
       0.3781746 0.39992517 -0.3729004 -0.10307278
000020 05 77 f3 3e 75 10 ed 3e 21 90 7e 3e 31 c9 2d bf
       0.47551742 0.46301618 0.24859668 -0.6788512
000030 a8 2f fa 3e 06 19 55 3e bd 6e 8f 3f 42 a0 8e 3e
       0.48864484 0.20810327 1.120567 0.27856642
000040 07 cf 2e bf 31 af 3a be 67 6d a3 be 3d 40 40 3e
       -0.6828465 -0.18230893 -0.31919405 0.18774505
000050 48 61 27 3e 74 d6 a2 3d e7 66 13 bd da d1 81 3e
       0.16345704 0.0795106 -0.035986807 0.25355417
000060 ed 4d 1a 3f eb 5e 40 3e d5 89 b8 be 0b 08 6c be
       0.60275155 0.18786208 -0.36042657 -0.23049943
000070 1a 2f 2c be 31 bf 88 3e 29 ea c0 be 74 b9 00 3d
       -0.16814843 0.26708367 -0.3767865 0.031426862
000080 b2 e4 c5 3e 42 aa 4f bd 02 eb 2c 3d f1 cf a8 be
       0.38651043 -0.05069948 0.04221631 -0.32971147
000090 f9 9d f5 bc 2a 0f 15 be 05 91 30 bd 2b 93 81 be
       -0.029982554 -0.14556566 -0.04310705 -0.25307593
0000a0 92 b3 c2 be ea 63 8b be 0b 36 d2 3e ad ad 0c 3f
       -0.38027626 -0.27224666 0.41056857 0.5495251
0000b0 d4 54 a9 3e 5b 4f da bd 5e 54 09 3c 6b 2e 3a 3e
       0.3307253 -0.10659667 0.008381931 0.1818177

conv_layers.4.res1.conv1.bias f4 [4]
000000 95 81 98 be 0b a1 56 be f1 4b b2 bb cf de f8 bd
       -0.29786363 -0.2095987 -0.005441182 -0.12151872

conv_layers.4.res1.conv2.weight f4 [4, 4, 3]
000000 20 be 9d 3e 14 c0 1f 3e c1 72 d7 3d 73 fc 09 bd
       0.30809116 0.15600616 0.105199344 -0.03368802
000010 cb 97 39 3e 9e dd eb 3e 8c e1 49 3f c4 ce 0c bf
       0.1812431 0.46067518 0.7885978 -0.55003
000020 0b c1 26 be 78 d4 11 3f d6 af 88 3e 0e 5f 1e bf
       -0.16284578 0.56964827 0.26696652 -0.6186379
000030 94 00 01 3f 9c e1 a3 3e 49 7c 38 be 37 31 ae 3e
       0.5039151 0.32008064 -0.18016161 0.34021923
000040 7b 06 86 3c 82 92 85 be fb f4 5f 3e ba ae d8 3c
       0.016360512 -0.2608834 0.21870796 0.026450504
000050 db 21 66 be 34 13 26 3e 8d b8 b2 3e ce b8 02 bf
       -0.22473852 0.16218263 0.34906426 -0.5106324
000060 80 f1 d5 bd c1 cf 14 bf 82 4e 04 3f c8 45 8c 3e
       -0.10446453 -0.5812951 0.51682293 0.2739699
000070 b7 0d 2b bf 75 bc 67 be 98 65 28 be 98 3c da be
       -0.668178 -0.22630484 -0.16445005 -0.42624354
000080 de 73 0c 3f 9c 19 19 bf 06 09 2f bd c8 8a 6f be
       0.548643 -0.598047 -0.042733215 -0.23392785
000090 81 38 d7 3e 58 3a ec 3e f2 62 3a 3e a6 31 a6 3e
       0.42035297 0.46138263 0.18201807 0.32459754
0000a0 a4 b2 f9 bc 7a ca ab 3c f3 68 05 3f 8e 2a 4c be
       -0.03048069 0.020970572 0.52113265 -0.19938108
0000b0 d1 85 15 bf 3a e2 95 be 5b a2 72 3d e2 34 90 3e
       -0.5840731 -0.2927416 0.059236865 0.28165346

conv_layers.4.res1.conv2.bias f4 [4]
000000 f7 fb 4f 3e ad 88 50 3e e1 44 86 be d8 e0 e9 3d
       0.2031096 0.20364638 -0.26224425 0.11419839

conv_layers.4.res2.conv1.weight f4 [4, 4, 3]
000000 34 43 14 bf 12 fe bc 3e 74 21 40 3e a7 f1 f9 3e
       -0.57915044 0.3691259 0.18762761 0.4881718
000010 ae a9 18 3f f0 db 8f be 8a fe 88 3e ea a2 eb 3d
       0.5963391 -0.28097486 0.26756698 0.11505683
000020 84 c9 2c 3d 40 36 0f 3e 31 77 d7 3e 82 c1 69 3f
       0.042184368 0.13985538 0.42083123 0.91310894
000030 21 0e 80 be 91 86 91 3e d1 10 a5 3e 06 76 05 3f
       -0.2501078 0.2842298 0.32239392 0.52133214
000040 fc 16 ad 3d 32 54 98 bd d6 88 09 3f 95 1d a7 3d
       0.084516495 -0.07437934 0.5372442 0.08159939
000050 42 f0 b5 3e 96 da 0e bf ad 54 a6 be 4d f7 90 3e
       0.35534865 -0.55802286 -0.32486477 0.28313676
000060 50 2d da be cd ba 44 bf f2 c5 4b 3e a3 75 70 be
       -0.42612696 -0.76847535 0.19899729 -0.23482375
000070 e4 ea 16 bf 56 56 58 3e d0 bb 35 3e 94 0c 3f be
       -0.58952165 0.21126685 0.17747426 -0.18657142
000080 07 75 34 bf ec d3 63 3e b5 ba 13 bf 65 c9 63 3e
       -0.7049107 0.2224881 -0.5770677 0.22244795
000090 db ee cd bc 91 4a 1a be c4 12 59 3e 76 f2 be bd
       -0.02513831 -0.15067507 0.21198565 -0.093235895
0000a0 37 2b 7c 3e b6 02 03 3f 2d b4 31 ba 4c ae 97 be
       0.2462586 0.5117601 -0.00067788624 -0.29625165
0000b0 75 32 9a be 29 df fa 3d 08 27 ea 3e 59 3e 74 be
       -0.3011662 0.12249596 0.45732903 -0.23851909

conv_layers.4.res2.conv1.bias f4 [4]
000000 bd 78 24 be 70 c6 42 3e 40 81 67 be 6d 2c a6 3e
       -0.16061683 0.1902101 -0.22607899 0.3245577

conv_layers.4.res2.conv2.weight f4 [4, 4, 3]
000000 9d 6d 3c 3d e1 3c 1f bf da ba 27 3f bc 73 80 be
       0.046002973 -0.6220227 0.6551949 -0.25088298
000010 11 36 00 bf 6f e3 8b 3c 10 f1 ed be 36 68 82 bc
       -0.500825 0.017076222 -0.4647298 -0.015918832
000020 37 c3 12 be 60 b2 e2 be c8 d2 00 bf 31 21 a9 3e
       -0.14332281 -0.44276714 -0.50321627 0.33033136
000030 a5 b3 b3 3e 78 5d 0d bf 4d 06 01 be eb ee 3e be
       0.35097995 -0.55220747 -0.1260006 -0.18645827
000040 38 ef 03 bf f7 96 e4 be cc 80 54 be f7 2c e9 be
       -0.51536894 -0.44646427 -0.20752257 -0.45542118
000050 8c 31 07 be fd be 5f be 30 2f 82 3d 1b b9 68 bf
       -0.13202494 -0.218502 0.063566566 -0.9090745
000060 09 23 4a 3e e1 90 8e be 59 a8 4a bf 54 cf 23 3e
       0.19739927 -0.2784491 -0.7916313 0.15997058
000070 02 9b 3e 3f 98 f2 97 3e b9 28 b5 3e 09 ed 32 3e
       0.74455273 0.29677272 0.3538263 0.17473234
000080 4d c1 f8 3e 89 48 52 3e 1e 02 bd 3e 8d 5e ff 3d
       0.48584977 0.20535482 0.36915678 0.12469206
000090 6f 75 e0 3e 9e d1 b1 be 4a 11 5a bf 9c a1 0b bf
       0.43839595 -0.34730238 -0.8518263 -0.5454347
0000a0 fa 4f 85 bf 61 b1 95 bd 2c 1b 01 bf c0 71 aa bd
       -1.0415032 -0.07309223 -0.50432086 -0.08322477
0000b0 ac 9c 00 bd 73 d6 c0 be 8f 70 63 be 1b 7e 85 be
       -0.031399414 -0.37663612 -0.22210906 -0.26072773

conv_layers.4.res2.conv2.bias f4 [4]
000000 15 f8 8b be 93 a5 66 3c 4a 24 95 3e 14 e3 91 be
       -0.2733771 0.014077562 0.2912925 -0.2849356

conv_layers.5.conv.weight f4 [4, 4, 1]
000000 56 18 e1 3e 2c f9 a8 be 2a 3f 9b be 05 7a 1a 3e
       0.4396388 -0.33002603 -0.30321628 0.1508561
000010 71 d7 09 bd c7 06 d6 3e 52 ee 35 3d dd ab 85 be
       -0.033652727 0.41802046 0.044416733 -0.26107684
000020 16 4f d8 3e 03 06 f9 bd b3 a6 f3 be 6b 34 41 3e
       0.42247838 -0.1215935 -0.4758812 0.18867652
000030 b8 7a bb 3e 57 50 12 3f f4 e1 8e be 39 eb ad 3d
       0.36617064 0.5715384 -0.27906764 0.08492131

conv_layers.5.conv.bias f4 [4]
000000 68 55 57 3d e1 fd 27 bf 38 e8 2e be 82 0c 69 3e
       0.052571684 -0.65621763 -0.17080772 0.22758678

conv_layers.5.res1.conv1.weight f4 [4, 4, 5]
000000 a3 e8 13 bf ed 81 c2 bd 57 40 cc 3e 43 17 aa 3e
       -0.5777685 -0.094974376 0.39892837 0.33220872
000010 b4 04 13 bf 67 44 0e 3f 9c cc d4 be d3 2e 31 be
       -0.5742905 0.55573124 -0.41562355 -0.17303018
000020 d6 00 3e be ff c6 2b be e9 4e a0 3e 0d c8 34 be
       -0.18555006 -0.1677513 0.31310204 -0.17654438
000030 8f 02 d3 be a8 57 50 bc b5 96 92 be 9d a8 4c 3d
       -0.4121289 -0.012716211 -0.28630605 0.04996549
000040 e4 2d 62 3f b2 cc a8 be 94 8d dd 3e 0b 2e 7e 3d
       0.88351274 -0.3296867 0.43272078 0.06205563
000050 ac d4 86 3e 17 41 88 bd 9d 86 19 3e f4 65 af be
       0.2633413 -0.0665304 0.14992757 -0.34257472
000060 48 91 2c 3e b9 5a 3a bf fe 7e 59 be cf ce 96 be
       0.16852295 -0.7279468 -0.2123985 -0.29454657
000070 ec d4 b5 be 94 95 82 3e 2e 9e 23 3e b4 ce c8 be
       -0.3551401 0.25504744 0.1597831 -0.39220202
000080 80 73 f2 be 6b b2 15 3e 15 33 94 be 31 77 55 bd
       -0.47353745 0.14618842 -0.28945222 -0.052115623
000090 ab 26 85 bd 15 e3 39 be 72 8d e2 be 89 71 03 3e
       -0.06501516 -0.18153031 -0.4424854 0.12836279
0000a0 5c df 77 3e 15 4d 04 bd 15 8a 58 3e 61 50 b4 3d
       0.24206299 -0.032300074 0.21146424 0.088043936
0000b0 61 e8 1e bf 1f 36 83 3e 04 68 19 3d f7 3f 77 bd
       -0.6207333 0.2562723 0.037452713 -0.060363736
0000c0 28 7c b3 be d2 32 74 be 34 26 89 3e 08 38 1c be
       -0.3505566 -0.23847511 0.2678696 -0.15255749
0000d0 7f 92 b7 3d b2 b9 ab 3d be f9 d5 3e 13 42 15 3e
       0.08963489 0.08385028 0.417921 0.14575987
0000e0 a0 ca 97 be f3 4c f1 3e 9d d5 71 bd 3e 68 3e 3f
       -0.29646778 0.4712902 -0.059041608 0.7437781
0000f0 4e cc c7 3e cf 98 82 3e 31 76 13 bd 29 ee 9b be
       0.3902306 0.2550721 -0.036001388 -0.3045514
000100 1b c6 a4 3d f5 25 6e be 95 46 b1 be 68 66 a0 3c
       0.08045598 -0.23256667 -0.34624162 0.019580081
000110 84 07 a5 3c 52 5c 26 3f 7c d0 20 3d cb 13 d9 be
       0.020145185 0.6498462 0.039261326 -0.42397913
000120 10 33 a1 3c 89 ae dd 3c 1f f9 ba be 6c f7 5d bf
       0.019677669 0.027060764 -0.3651819 -0.8670566
000130 43 51 7e 3d 67 4b 41 bd f9 4a 77 3f 02 42 c9 3e
       0.062089216 -0.04719105 0.96598774 0.39308172

conv_layers.5.res1.conv1.bias f4 [4]
000000 39 58 b5 bd 08 3f 0e 3f ef b4 f8 bb 6f 44 83 bc
       -0.08854718 0.5556493 -0.0075899283 -0.016023843

conv_layers.5.res1.conv2.weight f4 [4, 4, 5]
000000 da 99 86 3e 57 ae d4 3d bf bc f6 be 4a ef 1e be
       0.26289254 0.10384815 -0.48190877 -0.15520969
000010 42 b6 d2 be 49 b1 e1 be 33 43 71 bf 83 d5 a1 bd
       -0.41154677 -0.4408057 -0.9424316 -0.07902052
000020 d9 68 c1 be cd 61 2b bf 99 1e 61 3e 54 03 51 3f
       -0.37775305 -0.6694611 0.21984328 0.81645703
000030 69 ed db be 5b 6f 07 bf 89 d6 f2 3e e3 9e 84 be
       -0.42954567 -0.5290429 0.47429302 -0.2590247
000040 e1 c9 38 3d a9 c8 a6 bd 2e 21 82 be 58 08 34 3f
       0.0451144 -0.08143742 -0.2541594 0.7032523
000050 74 e6 31 bf 88 4f 0e bf ff c0 3c be 43 e1 15 3f
       -0.6949227 -0.55590105 -0.18432997 0.5854685
000060 28 11 22 3d 68 7f 8b be e9 f9 09 3f 45 9d 7c be
       0.039567143 -0.2724564 0.5389696 -0.24669369
000070 2c ea 21 bf 5a 4b 39 3f 83 1b 00 3e 9c f9 b9 bd
       -0.6324794 0.723806 0.12510495 -0.09080812
000080 de b9 a4 3e 3b bf ac 3e 76 c3 99 be 2d 0b 60 3e
       0.32173055 0.33739647 -0.30031937 0.21879263
000090 53 4f ea bc c4 10 33 bf 46 a6 0b bd 30 5a 0c 3f
       -0.028602278 -0.6994746 -0.034094118 0.54825115
0000a0 07 af 87 3d be b4 2a be 7c f5 1b bf 04 4a 11 bf
       0.06625181 -0.1667051 -0.60921454 -0.56753564
0000b0 ab 90 ce be 11 e9 a3 bf 67 dd 6d bf 15 3c 07 bf
       -0.40344748 -1.2805501 -0.9291596 -0.5282605
0000c0 7b 56 81 bf 50 23 a1 bf 22 1c b6 bd 35 ea d0 3e
       -1.0104517 -1.2588902 -0.08892085 0.40803686
0000d0 1b 5d cb be d2 b5 e0 3e d9 9a 36 3d de 09 94 be
       -0.3971947 0.43888718 0.044581268 -0.28913778
0000e0 e5 0c 6e 3d e3 84 62 be 2b a2 b2 bd 43 9d e7 3d
       0.058117766 -0.22121005 -0.08722337 0.11309292
0000f0 4f 60 90 3e 1f 8d 7e bd a9 08 50 be 9b a4 e8 be
       0.28198478 -0.062146302 -0.20315804 -0.45438084
000100 e4 cb a1 be 77 96 0a 3e e6 b9 a7 be 50 d1 ed 3e
       -0.3160087 0.1353396 -0.32759017 0.46448755
000110 90 38 15 3e 98 50 d6 be d3 1b 17 3f 5d 3d b8 3e
       0.14572358 -0.41858363 0.5902683 0.35984316
000120 fe 3a b3 be a7 27 e4 bc 93 26 3b 3e 80 8f 8e bc
       -0.35005945 -0.027850939 0.18276434 -0.01740241
000130 48 3e fb bb a2 2f be 3e ce 6e b2 3e 4a 30 b3 be
       -0.0076673366 0.37145716 0.34850162 -0.3499778

conv_layers.5.res1.conv2.bias f4 [4]
000000 b6 01 7d 3e 32 90 01 bf 6b ef e5 3d 18 e2 df bd
       0.24707684 -0.5061065 0.11227306 -0.10931796

conv_layers.5.res2.conv1.weight f4 [4, 4, 5]
000000 03 fb 62 bd 90 52 bf 3d 8b 3c 66 be cd 57 8c 3c
       -0.055415165 0.093419194 -0.22484033 0.01713171
000010 1c db 16 3f 28 76 12 bf df 58 a0 be 46 78 20 be
       0.58928084 -0.5721154 -0.31317803 -0.1567088
000020 4f 00 78 be 8c 1a 69 be 45 62 88 be 0b 99 6f 3e
       -0.24218868 -0.22764033 -0.26637474 0.23398225
000030 15 77 9e 3e 9f 7e 9a 3e 29 99 01 be f0 20 97 be
       0.30950227 0.3017473 -0.12656082 -0.29517317
000040 78 34 02 be 03 81 7e 3e 1b c6 b6 3e 26 6c 84 3e
       -0.12715328 0.24853902 0.35698017 0.2586376
000050 0e ff ef bd 3f dc 0e 3d b2 8b a5 3e 46 c7 7e be
       -0.1171857 0.03487801 0.32333142 -0.24880704
000060 c5 a2 eb be 37 e1 27 3f 81 7f 80 be c0 42 5a 3f
       -0.4602262 0.65578026 -0.25097278 0.852581
000070 ac 7e c9 3f 47 9e 63 3f fd 2c 71 3c b0 dd 04 3f
       1.5741782 0.8891339 0.014720199 0.5190077
000080 81 d8 0e 3f 78 7f 17 bd a3 f9 4d 3d 2a 16 fe 3b
       0.5579911 -0.036986798 0.0502869 0.007754107
000090 06 7f 0e 3c a5 e6 88 3f 2a db 91 3e 68 92 16 bd
       0.008697277 1.0695387 0.2848752 -0.036760718
0000a0 60 6b ca 3c 91 2e 7f 3d 73 10 25 be ff a5 3b bf
       0.024709404 0.06230027 -0.16119556 -0.73300165
0000b0 12 e9 a2 3d 02 3e 10 3f b3 ed 17 3f b5 aa 23 3f
       0.07954611 0.56344616 0.59347075 0.63932353
0000c0 11 54 9b 3e ec b6 c5 bf ab f0 65 3f b5 40 a1 be
       0.30337575 -1.5446448 0.89820355 -0.3149468
0000d0 ba cd 8f 3e 8d 2f 3b bf eb ba a0 3d b5 78 ac 3e
       0.28086644 -0.7311943 0.07848152 0.33685842
0000e0 df f1 ae 3d 6e 85 6f bc d8 9d 94 be 20 1f 94 be
       0.08542227 -0.014619214 -0.29026675 -0.28929996
0000f0 15 64 14 bf 6e b1 8b 3e 74 18 d4 3b 5f 47 08 3f
       -0.57965213 0.27283806 0.0064726416 0.53233904
000100 cb 49 6e 3d 3c d9 24 3e 3d 20 fe 3e b6 0a 8a 3e
       0.058175843 0.16098493 0.4963397 0.26961297
000110 88 1c 95 bf a8 65 b2 3e 36 ac d2 be 31 16 5e bf
       -1.1649332 0.34843183 -0.41147012 -0.8675261
000120 bc e9 3f bf 49 38 84 be 82 5a 21 be e5 84 f8 3d
       -0.74966025 -0.25824192 -0.15757182 0.121347226
000130 a6 1b 79 3e 78 75 63 3e 0d 8d 20 be 61 58 52 3f
       0.24326953 0.2221278 -0.15678807 0.82166106

conv_layers.5.res2.conv1.bias f4 [4]
000000 14 5d 94 be ef a5 24 3e 6a be 85 3d 74 4e 38 3e
       -0.28977263 0.16078924 0.06530459 0.17998677

conv_layers.5.res2.conv2.weight f4 [4, 4, 5]
000000 79 f3 28 be 6f bf e0 3e 51 7b 26 3a e6 97 08 bc
       -0.16499127 0.43896052 0.0006350773 -0.008336997
000010 da 7c 76 3e f0 d0 cb 3e 8d c8 fd 3d 66 fe bd be
       0.24071065 0.39807844 0.12391768 -0.37108153
000020 cc 52 1b be 38 70 f9 bd 89 a8 f3 3e 60 f4 a9 3e
       -0.15168303 -0.12179607 0.4758952 0.33194256
000030 cf 22 82 3d 1b 8d 43 3e 70 b6 c9 3e d7 45 ba 3e
       0.063542955 0.19096796 0.39397 0.3638141
000040 e7 a9 b2 be 34 dd 76 3c 6f 94 ab be 50 04 e0 be
       -0.3489525 0.015067387 -0.33511683 -0.4375329
000050 ab 8d a7 3c ed 59 f8 bb 19 32 05 3d c1 14 6b be
       0.020453295 -0.0075790794 0.03251848 -0.22957136
000060 6b f0 4a be 08 06 80 3d b0 0c 25 3e 6c 62 4d bc
       -0.19818275 0.0625115 0.16118121 -0.012535673
000070 28 75 13 3f dd c8 cb be ca 10 85 be 35 ff 10 bc
       0.5760064 -0.39801684 -0.25989372 -0.008849909
000080 0a 12 bb be b1 66 b7 3e 04 28 2e bf 95 e5 09 3e
       -0.365372 0.35820535 -0.6802981 0.13466485
000090 a0 e6 33 be 5c a8 75 be 16 21 88 be cc 8d ac bc
       -0.17568445 -0.23990005 -0.26587743 -0.021063708
0000a0 1c 10 d6 be e6 30 f1 3c 5a 40 72 3c 57 7a 91 3c
       -0.41809165 0.029442262 0.01478585 0.017758531
0000b0 f3 22 8a 3e 70 2f d6 3c f8 7c 03 bf 0e 59 42 3f
       0.2697979 0.026145667 -0.5136256 0.75917137
0000c0 70 50 dd 3d 82 8f 04 3e 6e 7e f8 3d 37 84 46 be
       0.10806358 0.12945369 0.121334895 -0.19386373
0000d0 c2 e7 5a be 14 9c 28 bf 5c 87 19 bf bb 93 15 3f
       -0.21377471 -0.65863156 -0.59972167 0.58428544
0000e0 95 00 df bd d7 0a fe 3b 04 6e 9f 3e a5 7f db bd
       -0.10888783 0.007752757 0.31138623 -0.10717706
0000f0 90 ad b3 be 53 f6 f5 be 70 17 90 3e 0c 38 c5 bd
       -0.35093355 -0.48039493 0.2814288 -0.09629831
000100 1f dd 2e be 5d 5b 83 3e 28 53 bc be be ea bd bd
       -0.17076539 0.25655642 -0.36782193 -0.09273289
000110 be da f4 3c 14 63 f7 3e 16 17 0a 3f 1f 3a f1 3e
       0.02988946 0.48317778 0.53941476 0.47114655
000120 a5 26 0c bf 68 3d 60 3e cf 0a ee be b0 cf 76 bf
       -0.54746467 0.21898425 -0.4649262 -0.96410656
000130 36 e2 23 bf 85 41 e7 be 99 c4 01 bf 67 5e 76 bf
       -0.64017045 -0.45167175 -0.5069061 -0.96237797

conv_layers.5.res2.conv2.bias f4 [4]
000000 2a 83 d2 bd 83 32 8f 3d 70 fe 4d be c3 53 de bd
       -0.10278924 0.06992056 -0.20116591 -0.1085582

conv_layers.6.conv.weight f4 [4, 4, 1]
000000 55 35 15 3f fe ca a6 be 81 c1 1b bc 65 1f 89 bd
       0.58284503 -0.32576746 -0.009506584 -0.06695441
000010 20 85 85 be e8 f6 ad bd 1a 6f ae bd 50 8d d2 be
       -0.2607813 -0.08494359 -0.08517285 -0.41123438
000020 07 7e 29 bd 62 d3 a5 3e a8 c2 9e 3e d5 9d 07 3e
       -0.041379955 0.32387835 0.31007886 0.13243802
000030 92 f7 d7 be 0b 31 2d 3e c9 fe 03 3f 7d 27 06 be
       -0.4218107 0.1691324 0.51560646 -0.13101001

conv_layers.6.conv.bias f4 [4]
000000 12 69 08 bf 8b 65 20 3f 45 e3 c4 3e 9d d0 60 be
       -0.53285325 0.6265494 0.38454643 -0.2195458

conv_layers.6.res1.conv1.weight f4 [4, 4, 3]
000000 51 8c ef be f0 43 be be 16 8d 99 bc 83 47 07 bf
       -0.4678674 -0.37161207 -0.018744033 -0.52843493
000010 11 cd cb 3e 60 f1 f2 be a9 43 cd 3e c4 f6 49 bf
       0.3980489 -0.4744978 0.40090683 -0.7889216
000020 c5 d5 81 3d c3 d0 11 3e 71 7c fc 3d 4a ba 41 3f
       0.063396014 0.14239793 0.12328423 0.7567488
000030 e8 63 13 bf 49 ca 1f bf 7f 59 dc bd c6 ba 6d 3e
       -0.5757432 -0.6241804 -0.107592575 0.2321578
000040 bd 13 bb 3e a7 52 60 3f 88 93 42 be 68 3c 1b 3f
       0.36538497 0.8762612 -0.19001591 0.6063905
000050 ba fe 85 be 6e cb 3a bf 65 6d 46 be 56 3d d6 3d
       -0.26170903 -0.7296666 -0.19377668 0.10460918
000060 89 8c 3a bd 16 56 5f be e3 57 19 3e c0 93 3c be
       -0.04554418 -0.21810183 0.14974932 -0.18415737
000070 49 43 95 be 5d 80 a6 3e f0 e7 83 3d b0 be 9f 3b
       -0.29152897 0.32519808 0.06440723 0.0048750266
000080 1e b1 f9 3e ea cf 29 3f 6e 87 fb 3e 07 c5 95 3e
       0.48767942 0.66332877 0.49126762 0.29251882
000090 87 f7 0f 3e 9f a8 be be 9d 91 02 3e a8 33 3a 3f
       0.14059268 -0.37238023 0.1275086 0.7273507
0000a0 7c 40 b1 bf e4 e3 f7 3e 59 f1 d5 be f2 6a db bb
       -1.3847804 0.48416054 -0.41785696 -0.0066960985
0000b0 45 af 1f bf ad 00 b7 be bd 61 a2 be a7 34 c8 bd
       -0.62376815 -0.35742703 -0.31715193 -0.09775668

conv_layers.6.res1.conv1.bias f4 [4]
000000 4a d9 b6 bc a7 46 52 3e 54 11 a7 bd b1 6b da be
       -0.022320408 0.20534764 -0.08157602 -0.42660287
